…
{'aq_bits': 4, 'aq_type': 'uniform', 'arch': 'rnqresnet20', 'batch_size': 128, 'data_path': '../../datasets/CIFAR10/cifar', 'dataset': 'cifar10', 'decay': 0.0001, 'epochs': 100, 'evaluate': False, 'gammas': [0.1, 0.1, 0.1], 'learning_rate': 0.01, 'manualSeed': 3908, 'momentum': 0.9, 'ngpu': 4, 'pretrained': '', 'print_freq': 200, 'resume': 'snapshots/finetune_cifar10_resnet20_300/model_best.pth.tar', 'save_path': './snapshots/uniform_4_quantized_cifar10_rnqresnet20_100', 'schedule': [30, 60, 90], 'start_epoch': 0, 'use_cuda': True, 'workers': 16}
Random Seed: 3908
python version : 3.7.3 (default, Mar 27 2019, 22:11:17)  [GCC 7.3.0]
torch  version : 1.1.0
cudnn  version : 7501
=> creating model 'rnqresnet20'
=> network :
 CifarResNet(
  (conv_1_3x3): Conv2d(3, 16, kernel_size=(3, 3), stride=(1, 1), padding=(1, 1), bias=False)
  (bn_1): BatchNorm2d(16, eps=1e-05, momentum=0.1, affine=True, track_running_stats=True)
  (stage_1): Sequential(
    (0): ResNetBasicblock(
      (conv_a): RNQConv2d(
        16, 16, kernel_size=(3, 3), stride=(1, 1), padding=(1, 1), bias=False
        (routing): Sequential(
          (0): Linear(in_features=16, out_features=16, bias=True)
          (1): ReLU()
          (2): Linear(in_features=16, out_features=1, bias=True)
          (3): Sigmoid()
        )
      )
      (bn_a): BatchNorm2d(16, eps=1e-05, momentum=0.1, affine=True, track_running_stats=True)
      (conv_b): RNQConv2d(
        16, 16, kernel_size=(3, 3), stride=(1, 1), padding=(1, 1), bias=False
        (routing): Sequential(
          (0): Linear(in_features=16, out_features=16, bias=True)
          (1): ReLU()
          (2): Linear(in_features=16, out_features=1, bias=True)
          (3): Sigmoid()
        )
      )
      (bn_b): BatchNorm2d(16, eps=1e-05, momentum=0.1, affine=True, track_running_stats=True)
    )
    (1): ResNetBasicblock(
      (conv_a): RNQConv2d(
        16, 16, kernel_size=(3, 3), stride=(1, 1), padding=(1, 1), bias=False
        (routing): Sequential(
          (0): Linear(in_features=16, out_features=16, bias=True)
          (1): ReLU()
          (2): Linear(in_features=16, out_features=1, bias=True)
          (3): Sigmoid()
        )
      )
      (bn_a): BatchNorm2d(16, eps=1e-05, momentum=0.1, affine=True, track_running_stats=True)
      (conv_b): RNQConv2d(
        16, 16, kernel_size=(3, 3), stride=(1, 1), padding=(1, 1), bias=False
        (routing): Sequential(
          (0): Linear(in_features=16, out_features=16, bias=True)
          (1): ReLU()
          (2): Linear(in_features=16, out_features=1, bias=True)
          (3): Sigmoid()
        )
      )
      (bn_b): BatchNorm2d(16, eps=1e-05, momentum=0.1, affine=True, track_running_stats=True)
    )
    (2): ResNetBasicblock(
      (conv_a): RNQConv2d(
        16, 16, kernel_size=(3, 3), stride=(1, 1), padding=(1, 1), bias=False
        (routing): Sequential(
          (0): Linear(in_features=16, out_features=16, bias=True)
          (1): ReLU()
          (2): Linear(in_features=16, out_features=1, bias=True)
          (3): Sigmoid()
        )
      )
      (bn_a): BatchNorm2d(16, eps=1e-05, momentum=0.1, affine=True, track_running_stats=True)
      (conv_b): RNQConv2d(
        16, 16, kernel_size=(3, 3), stride=(1, 1), padding=(1, 1), bias=False
        (routing): Sequential(
          (0): Linear(in_features=16, out_features=16, bias=True)
          (1): ReLU()
          (2): Linear(in_features=16, out_features=1, bias=True)
          (3): Sigmoid()
        )
      )
      (bn_b): BatchNorm2d(16, eps=1e-05, momentum=0.1, affine=True, track_running_stats=True)
    )
  )
  (stage_2): Sequential(
    (0): ResNetBasicblock(
      (conv_a): RNQConv2d(
        16, 32, kernel_size=(3, 3), stride=(2, 2), padding=(1, 1), bias=False
        (routing): Sequential(
          (0): Linear(in_features=16, out_features=16, bias=True)
          (1): ReLU()
          (2): Linear(in_features=16, out_features=1, bias=True)
          (3): Sigmoid()
        )
      )
      (bn_a): BatchNorm2d(32, eps=1e-05, momentum=0.1, affine=True, track_running_stats=True)
      (conv_b): RNQConv2d(
        32, 32, kernel_size=(3, 3), stride=(1, 1), padding=(1, 1), bias=False
        (routing): Sequential(
          (0): Linear(in_features=32, out_features=16, bias=True)
          (1): ReLU()
          (2): Linear(in_features=16, out_features=1, bias=True)
          (3): Sigmoid()
        )
      )
      (bn_b): BatchNorm2d(32, eps=1e-05, momentum=0.1, affine=True, track_running_stats=True)
      (downsample): DownsampleA(
        (avg): AvgPool2d(kernel_size=1, stride=2, padding=0)
      )
    )
    (1): ResNetBasicblock(
      (conv_a): RNQConv2d(
        32, 32, kernel_size=(3, 3), stride=(1, 1), padding=(1, 1), bias=False
        (routing): Sequential(
          (0): Linear(in_features=32, out_features=16, bias=True)
          (1): ReLU()
          (2): Linear(in_features=16, out_features=1, bias=True)
          (3): Sigmoid()
        )
      )
      (bn_a): BatchNorm2d(32, eps=1e-05, momentum=0.1, affine=True, track_running_stats=True)
      (conv_b): RNQConv2d(
        32, 32, kernel_size=(3, 3), stride=(1, 1), padding=(1, 1), bias=False
        (routing): Sequential(
          (0): Linear(in_features=32, out_features=16, bias=True)
          (1): ReLU()
          (2): Linear(in_features=16, out_features=1, bias=True)
          (3): Sigmoid()
        )
      )
      (bn_b): BatchNorm2d(32, eps=1e-05, momentum=0.1, affine=True, track_running_stats=True)
    )
    (2): ResNetBasicblock(
      (conv_a): RNQConv2d(
        32, 32, kernel_size=(3, 3), stride=(1, 1), padding=(1, 1), bias=False
        (routing): Sequential(
          (0): Linear(in_features=32, out_features=16, bias=True)
          (1): ReLU()
          (2): Linear(in_features=16, out_features=1, bias=True)
          (3): Sigmoid()
        )
      )
      (bn_a): BatchNorm2d(32, eps=1e-05, momentum=0.1, affine=True, track_running_stats=True)
      (conv_b): RNQConv2d(
        32, 32, kernel_size=(3, 3), stride=(1, 1), padding=(1, 1), bias=False
        (routing): Sequential(
          (0): Linear(in_features=32, out_features=16, bias=True)
          (1): ReLU()
          (2): Linear(in_features=16, out_features=1, bias=True)
          (3): Sigmoid()
        )
      )
      (bn_b): BatchNorm2d(32, eps=1e-05, momentum=0.1, affine=True, track_running_stats=True)
    )
  )
  (stage_3): Sequential(
    (0): ResNetBasicblock(
      (conv_a): RNQConv2d(
        32, 64, kernel_size=(3, 3), stride=(2, 2), padding=(1, 1), bias=False
        (routing): Sequential(
          (0): Linear(in_features=32, out_features=16, bias=True)
          (1): ReLU()
          (2): Linear(in_features=16, out_features=1, bias=True)
          (3): Sigmoid()
        )
      )
      (bn_a): BatchNorm2d(64, eps=1e-05, momentum=0.1, affine=True, track_running_stats=True)
      (conv_b): RNQConv2d(
        64, 64, kernel_size=(3, 3), stride=(1, 1), padding=(1, 1), bias=False
        (routing): Sequential(
          (0): Linear(in_features=64, out_features=16, bias=True)
          (1): ReLU()
          (2): Linear(in_features=16, out_features=1, bias=True)
          (3): Sigmoid()
        )
      )
      (bn_b): BatchNorm2d(64, eps=1e-05, momentum=0.1, affine=True, track_running_stats=True)
      (downsample): DownsampleA(
        (avg): AvgPool2d(kernel_size=1, stride=2, padding=0)
      )
    )
    (1): ResNetBasicblock(
      (conv_a): RNQConv2d(
        64, 64, kernel_size=(3, 3), stride=(1, 1), padding=(1, 1), bias=False
        (routing): Sequential(
          (0): Linear(in_features=64, out_features=16, bias=True)
          (1): ReLU()
          (2): Linear(in_features=16, out_features=1, bias=True)
          (3): Sigmoid()
        )
      )
      (bn_a): BatchNorm2d(64, eps=1e-05, momentum=0.1, affine=True, track_running_stats=True)
      (conv_b): RNQConv2d(
        64, 64, kernel_size=(3, 3), stride=(1, 1), padding=(1, 1), bias=False
        (routing): Sequential(
          (0): Linear(in_features=64, out_features=16, bias=True)
          (1): ReLU()
          (2): Linear(in_features=16, out_features=1, bias=True)
          (3): Sigmoid()
        )
      )
      (bn_b): BatchNorm2d(64, eps=1e-05, momentum=0.1, affine=True, track_running_stats=True)
    )
    (2): ResNetBasicblock(
      (conv_a): RNQConv2d(
        64, 64, kernel_size=(3, 3), stride=(1, 1), padding=(1, 1), bias=False
        (routing): Sequential(
          (0): Linear(in_features=64, out_features=16, bias=True)
          (1): ReLU()
          (2): Linear(in_features=16, out_features=1, bias=True)
          (3): Sigmoid()
        )
      )
      (bn_a): BatchNorm2d(64, eps=1e-05, momentum=0.1, affine=True, track_running_stats=True)
      (conv_b): RNQConv2d(
        64, 64, kernel_size=(3, 3), stride=(1, 1), padding=(1, 1), bias=False
        (routing): Sequential(
          (0): Linear(in_features=64, out_features=16, bias=True)
          (1): ReLU()
          (2): Linear(in_features=16, out_features=1, bias=True)
          (3): Sigmoid()
        )
      )
      (bn_b): BatchNorm2d(64, eps=1e-05, momentum=0.1, affine=True, track_running_stats=True)
    )
  )
  (avgpool): AvgPool2d(kernel_size=8, stride=8, padding=0)
  (classifier): QuantLinear(in_features=64, out_features=10, bias=True, method=KMeans, nbits=4)
)
=> loading checkpoint 'snapshots/finetune_cifar10_resnet20_300/model_best.pth.tar'
=> loaded checkpoint 'snapshots/finetune_cifar10_resnet20_300/model_best.pth.tar' (epoch 291)
…
