…
{'aq_bits': None, 'aq_type': 'uniform', 'arch': 'mobilenetv2', 'batch_size': 128, 'data_path': '../datasets/CIFAR10/cifar', 'dataset': 'cifar10', 'decay': 0.0001, 'epochs': 300, 'evaluate': False, 'gammas': [0.1, 0.1, 0.1], 'learning_rate': 0.1, 'manualSeed': 9944, 'momentum': 0.9, 'ngpu': 4, 'pretrained': '', 'print_freq': 200, 'resume': None, 'save_path': './snapshots/finetune_cifar10_mobilenetv2_300', 'schedule': [120, 180, 240], 'start_epoch': 0, 'use_cuda': True, 'workers': 16}
Random Seed: 9944
python version : 3.7.3 (default, Mar 27 2019, 22:11:17)  [GCC 7.3.0]
torch  version : 1.1.0
cudnn  version : 7501
=> creating model 'mobilenetv2'
=> network :
 MobileNetV2(
  (conv1): Conv2d(3, 32, kernel_size=(3, 3), stride=(1, 1), padding=(1, 1), bias=False)
  (bn1): BatchNorm2d(32, eps=1e-05, momentum=0.1, affine=True, track_running_stats=True)
  (layers): Sequential(
    (0): Block(
      (conv1): Conv2d(32, 32, kernel_size=(1, 1), stride=(1, 1), bias=False)
      (bn1): BatchNorm2d(32, eps=1e-05, momentum=0.1, affine=True, track_running_stats=True)
      (conv2): Conv2d(32, 32, kernel_size=(3, 3), stride=(1, 1), padding=(1, 1), groups=32, bias=False)
      (bn2): BatchNorm2d(32, eps=1e-05, momentum=0.1, affine=True, track_running_stats=True)
      (conv3): Conv2d(32, 16, kernel_size=(1, 1), stride=(1, 1), bias=False)
      (bn3): BatchNorm2d(16, eps=1e-05, momentum=0.1, affine=True, track_running_stats=True)
      (shortcut): Sequential(
        (0): Conv2d(32, 16, kernel_size=(1, 1), stride=(1, 1), bias=False)
        (1): BatchNorm2d(16, eps=1e-05, momentum=0.1, affine=True, track_running_stats=True)
      )
    )
    (1): Block(
      (conv1): Conv2d(16, 96, kernel_size=(1, 1), stride=(1, 1), bias=False)
      (bn1): BatchNorm2d(96, eps=1e-05, momentum=0.1, affine=True, track_running_stats=True)
      (conv2): Conv2d(96, 96, kernel_size=(3, 3), stride=(1, 1), padding=(1, 1), groups=96, bias=False)
      (bn2): BatchNorm2d(96, eps=1e-05, momentum=0.1, affine=True, track_running_stats=True)
      (conv3): Conv2d(96, 24, kernel_size=(1, 1), stride=(1, 1), bias=False)
      (bn3): BatchNorm2d(24, eps=1e-05, momentum=0.1, affine=True, track_running_stats=True)
      (shortcut): Sequential(
        (0): Conv2d(16, 24, kernel_size=(1, 1), stride=(1, 1), bias=False)
        (1): BatchNorm2d(24, eps=1e-05, momentum=0.1, affine=True, track_running_stats=True)
      )
    )
    (2): Block(
      (conv1): Conv2d(24, 144, kernel_size=(1, 1), stride=(1, 1), bias=False)
      (bn1): BatchNorm2d(144, eps=1e-05, momentum=0.1, affine=True, track_running_stats=True)
      (conv2): Conv2d(144, 144, kernel_size=(3, 3), stride=(1, 1), padding=(1, 1), groups=144, bias=False)
      (bn2): BatchNorm2d(144, eps=1e-05, momentum=0.1, affine=True, track_running_stats=True)
      (conv3): Conv2d(144, 24, kernel_size=(1, 1), stride=(1, 1), bias=False)
      (bn3): BatchNorm2d(24, eps=1e-05, momentum=0.1, affine=True, track_running_stats=True)
      (shortcut): Sequential()
    )
    (3): Block(
      (conv1): Conv2d(24, 144, kernel_size=(1, 1), stride=(1, 1), bias=False)
      (bn1): BatchNorm2d(144, eps=1e-05, momentum=0.1, affine=True, track_running_stats=True)
      (conv2): Conv2d(144, 144, kernel_size=(3, 3), stride=(2, 2), padding=(1, 1), groups=144, bias=False)
      (bn2): BatchNorm2d(144, eps=1e-05, momentum=0.1, affine=True, track_running_stats=True)
      (conv3): Conv2d(144, 32, kernel_size=(1, 1), stride=(1, 1), bias=False)
      (bn3): BatchNorm2d(32, eps=1e-05, momentum=0.1, affine=True, track_running_stats=True)
      (shortcut): Sequential()
    )
    (4): Block(
      (conv1): Conv2d(32, 192, kernel_size=(1, 1), stride=(1, 1), bias=False)
      (bn1): BatchNorm2d(192, eps=1e-05, momentum=0.1, affine=True, track_running_stats=True)
      (conv2): Conv2d(192, 192, kernel_size=(3, 3), stride=(1, 1), padding=(1, 1), groups=192, bias=False)
      (bn2): BatchNorm2d(192, eps=1e-05, momentum=0.1, affine=True, track_running_stats=True)
      (conv3): Conv2d(192, 32, kernel_size=(1, 1), stride=(1, 1), bias=False)
      (bn3): BatchNorm2d(32, eps=1e-05, momentum=0.1, affine=True, track_running_stats=True)
      (shortcut): Sequential()
    )
    (5): Block(
      (conv1): Conv2d(32, 192, kernel_size=(1, 1), stride=(1, 1), bias=False)
      (bn1): BatchNorm2d(192, eps=1e-05, momentum=0.1, affine=True, track_running_stats=True)
      (conv2): Conv2d(192, 192, kernel_size=(3, 3), stride=(1, 1), padding=(1, 1), groups=192, bias=False)
      (bn2): BatchNorm2d(192, eps=1e-05, momentum=0.1, affine=True, track_running_stats=True)
      (conv3): Conv2d(192, 32, kernel_size=(1, 1), stride=(1, 1), bias=False)
      (bn3): BatchNorm2d(32, eps=1e-05, momentum=0.1, affine=True, track_running_stats=True)
      (shortcut): Sequential()
    )
    (6): Block(
      (conv1): Conv2d(32, 192, kernel_size=(1, 1), stride=(1, 1), bias=False)
      (bn1): BatchNorm2d(192, eps=1e-05, momentum=0.1, affine=True, track_running_stats=True)
      (conv2): Conv2d(192, 192, kernel_size=(3, 3), stride=(2, 2), padding=(1, 1), groups=192, bias=False)
      (bn2): BatchNorm2d(192, eps=1e-05, momentum=0.1, affine=True, track_running_stats=True)
      (conv3): Conv2d(192, 64, kernel_size=(1, 1), stride=(1, 1), bias=False)
      (bn3): BatchNorm2d(64, eps=1e-05, momentum=0.1, affine=True, track_running_stats=True)
      (shortcut): Sequential()
    )
    (7): Block(
      (conv1): Conv2d(64, 384, kernel_size=(1, 1), stride=(1, 1), bias=False)
      (bn1): BatchNorm2d(384, eps=1e-05, momentum=0.1, affine=True, track_running_stats=True)
      (conv2): Conv2d(384, 384, kernel_size=(3, 3), stride=(1, 1), padding=(1, 1), groups=384, bias=False)
      (bn2): BatchNorm2d(384, eps=1e-05, momentum=0.1, affine=True, track_running_stats=True)
      (conv3): Conv2d(384, 64, kernel_size=(1, 1), stride=(1, 1), bias=False)
      (bn3): BatchNorm2d(64, eps=1e-05, momentum=0.1, affine=True, track_running_stats=True)
      (shortcut): Sequential()
    )
    (8): Block(
      (conv1): Conv2d(64, 384, kernel_size=(1, 1), stride=(1, 1), bias=False)
      (bn1): BatchNorm2d(384, eps=1e-05, momentum=0.1, affine=True, track_running_stats=True)
      (conv2): Conv2d(384, 384, kernel_size=(3, 3), stride=(1, 1), padding=(1, 1), groups=384, bias=False)
      (bn2): BatchNorm2d(384, eps=1e-05, momentum=0.1, affine=True, track_running_stats=True)
      (conv3): Conv2d(384, 64, kernel_size=(1, 1), stride=(1, 1), bias=False)
      (bn3): BatchNorm2d(64, eps=1e-05, momentum=0.1, affine=True, track_running_stats=True)
      (shortcut): Sequential()
    )
    (9): Block(
      (conv1): Conv2d(64, 384, kernel_size=(1, 1), stride=(1, 1), bias=False)
      (bn1): BatchNorm2d(384, eps=1e-05, momentum=0.1, affine=True, track_running_stats=True)
      (conv2): Conv2d(384, 384, kernel_size=(3, 3), stride=(1, 1), padding=(1, 1), groups=384, bias=False)
      (bn2): BatchNorm2d(384, eps=1e-05, momentum=0.1, affine=True, track_running_stats=True)
      (conv3): Conv2d(384, 64, kernel_size=(1, 1), stride=(1, 1), bias=False)
      (bn3): BatchNorm2d(64, eps=1e-05, momentum=0.1, affine=True, track_running_stats=True)
      (shortcut): Sequential()
    )
    (10): Block(
      (conv1): Conv2d(64, 384, kernel_size=(1, 1), stride=(1, 1), bias=False)
      (bn1): BatchNorm2d(384, eps=1e-05, momentum=0.1, affine=True, track_running_stats=True)
      (conv2): Conv2d(384, 384, kernel_size=(3, 3), stride=(1, 1), padding=(1, 1), groups=384, bias=False)
      (bn2): BatchNorm2d(384, eps=1e-05, momentum=0.1, affine=True, track_running_stats=True)
      (conv3): Conv2d(384, 96, kernel_size=(1, 1), stride=(1, 1), bias=False)
      (bn3): BatchNorm2d(96, eps=1e-05, momentum=0.1, affine=True, track_running_stats=True)
      (shortcut): Sequential(
        (0): Conv2d(64, 96, kernel_size=(1, 1), stride=(1, 1), bias=False)
        (1): BatchNorm2d(96, eps=1e-05, momentum=0.1, affine=True, track_running_stats=True)
      )
    )
    (11): Block(
      (conv1): Conv2d(96, 576, kernel_size=(1, 1), stride=(1, 1), bias=False)
      (bn1): BatchNorm2d(576, eps=1e-05, momentum=0.1, affine=True, track_running_stats=True)
      (conv2): Conv2d(576, 576, kernel_size=(3, 3), stride=(1, 1), padding=(1, 1), groups=576, bias=False)
      (bn2): BatchNorm2d(576, eps=1e-05, momentum=0.1, affine=True, track_running_stats=True)
      (conv3): Conv2d(576, 96, kernel_size=(1, 1), stride=(1, 1), bias=False)
      (bn3): BatchNorm2d(96, eps=1e-05, momentum=0.1, affine=True, track_running_stats=True)
      (shortcut): Sequential()
    )
    (12): Block(
      (conv1): Conv2d(96, 576, kernel_size=(1, 1), stride=(1, 1), bias=False)
      (bn1): BatchNorm2d(576, eps=1e-05, momentum=0.1, affine=True, track_running_stats=True)
      (conv2): Conv2d(576, 576, kernel_size=(3, 3), stride=(1, 1), padding=(1, 1), groups=576, bias=False)
      (bn2): BatchNorm2d(576, eps=1e-05, momentum=0.1, affine=True, track_running_stats=True)
      (conv3): Conv2d(576, 96, kernel_size=(1, 1), stride=(1, 1), bias=False)
      (bn3): BatchNorm2d(96, eps=1e-05, momentum=0.1, affine=True, track_running_stats=True)
      (shortcut): Sequential()
    )
    (13): Block(
      (conv1): Conv2d(96, 576, kernel_size=(1, 1), stride=(1, 1), bias=False)
      (bn1): BatchNorm2d(576, eps=1e-05, momentum=0.1, affine=True, track_running_stats=True)
      (conv2): Conv2d(576, 576, kernel_size=(3, 3), stride=(2, 2), padding=(1, 1), groups=576, bias=False)
      (bn2): BatchNorm2d(576, eps=1e-05, momentum=0.1, affine=True, track_running_stats=True)
      (conv3): Conv2d(576, 160, kernel_size=(1, 1), stride=(1, 1), bias=False)
      (bn3): BatchNorm2d(160, eps=1e-05, momentum=0.1, affine=True, track_running_stats=True)
      (shortcut): Sequential()
    )
    (14): Block(
      (conv1): Conv2d(160, 960, kernel_size=(1, 1), stride=(1, 1), bias=False)
      (bn1): BatchNorm2d(960, eps=1e-05, momentum=0.1, affine=True, track_running_stats=True)
      (conv2): Conv2d(960, 960, kernel_size=(3, 3), stride=(1, 1), padding=(1, 1), groups=960, bias=False)
      (bn2): BatchNorm2d(960, eps=1e-05, momentum=0.1, affine=True, track_running_stats=True)
      (conv3): Conv2d(960, 160, kernel_size=(1, 1), stride=(1, 1), bias=False)
      (bn3): BatchNorm2d(160, eps=1e-05, momentum=0.1, affine=True, track_running_stats=True)
      (shortcut): Sequential()
    )
    (15): Block(
      (conv1): Conv2d(160, 960, kernel_size=(1, 1), stride=(1, 1), bias=False)
      (bn1): BatchNorm2d(960, eps=1e-05, momentum=0.1, affine=True, track_running_stats=True)
      (conv2): Conv2d(960, 960, kernel_size=(3, 3), stride=(1, 1), padding=(1, 1), groups=960, bias=False)
      (bn2): BatchNorm2d(960, eps=1e-05, momentum=0.1, affine=True, track_running_stats=True)
      (conv3): Conv2d(960, 160, kernel_size=(1, 1), stride=(1, 1), bias=False)
      (bn3): BatchNorm2d(160, eps=1e-05, momentum=0.1, affine=True, track_running_stats=True)
      (shortcut): Sequential()
    )
    (16): Block(
      (conv1): Conv2d(160, 960, kernel_size=(1, 1), stride=(1, 1), bias=False)
      (bn1): BatchNorm2d(960, eps=1e-05, momentum=0.1, affine=True, track_running_stats=True)
      (conv2): Conv2d(960, 960, kernel_size=(3, 3), stride=(1, 1), padding=(1, 1), groups=960, bias=False)
      (bn2): BatchNorm2d(960, eps=1e-05, momentum=0.1, affine=True, track_running_stats=True)
      (conv3): Conv2d(960, 320, kernel_size=(1, 1), stride=(1, 1), bias=False)
      (bn3): BatchNorm2d(320, eps=1e-05, momentum=0.1, affine=True, track_running_stats=True)
      (shortcut): Sequential(
        (0): Conv2d(160, 320, kernel_size=(1, 1), stride=(1, 1), bias=False)
        (1): BatchNorm2d(320, eps=1e-05, momentum=0.1, affine=True, track_running_stats=True)
      )
    )
  )
  (conv2): Conv2d(320, 1280, kernel_size=(1, 1), stride=(1, 1), bias=False)
  (bn2): BatchNorm2d(1280, eps=1e-05, momentum=0.1, affine=True, track_running_stats=True)
  (linear): Linear(in_features=1280, out_features=10, bias=True)
)
=> do not use any checkpoint for mobilenetv2 model

==>>[2019-09-25 17:32:51] [Epoch=000/300] [Need: 00:00:00] [learning_rate=0.1000] [Best : Accuracy=0.00, Error=100.00]
  Epoch: [000][000/391]   Time 14.181 (14.181)   Data 0.617 (0.617)   Loss 2.3108 (2.3108)   Prec@1 8.594 (8.594)   Prec@5 48.438 (48.438)   [2019-09-25 17:33:05]
  Epoch: [000][200/391]   Time 0.134 (0.176)   Data 0.000 (0.003)   Loss 1.5015 (1.7093)   Prec@1 46.875 (36.198)   Prec@5 92.969 (86.186)   [2019-09-25 17:33:26]
…
