…
{'aq_bits': None, 'aq_type': 'uniform', 'arch': 'mobilenetv5', 'batch_size': 128, 'data_path': '../datasets/cifar100', 'dataset': 'cifar100', 'decay': 0.0001, 'epochs': 300, 'evaluate': False, 'gammas': [0.1, 0.1, 0.1], 'learning_rate': 0.1, 'manualSeed': 5451, 'momentum': 0.9, 'ngpu': 4, 'pretrained': '', 'print_freq': 200, 'resume': None, 'save_path': './snapshots/finetune_cifar100_mobilenetv5_300', 'schedule': [120, 180, 240], 'start_epoch': 0, 'use_cuda': True, 'workers': 16}
Random Seed: 5451
python version : 3.7.3 (default, Mar 27 2019, 22:11:17)  [GCC 7.3.0]
torch  version : 1.1.0
cudnn  version : 7501
=> creating model 'mobilenetv5'
=> network :
 MobileNetV5(
  (features): Sequential(
    (0): Sequential(
      (0): Conv2d(3, 8, kernel_size=(3, 3), stride=(2, 2), padding=(1, 1), bias=False)
      (1): BatchNorm2d(8, eps=1e-05, momentum=0.1, affine=True, track_running_stats=True)
      (2): ReLU6(inplace)
    )
    (1): MobileBottleneck(
      (conv): Sequential(
        (0): Conv2d(8, 12, kernel_size=(1, 1), stride=(1, 1), bias=False)
        (1): BatchNorm2d(12, eps=1e-05, momentum=0.1, affine=True, track_running_stats=True)
        (2): ReLU6(inplace)
        (3): Conv2d(12, 12, kernel_size=(3, 3), stride=(2, 2), padding=(1, 1), groups=12, bias=False)
        (4): BatchNorm2d(12, eps=1e-05, momentum=0.1, affine=True, track_running_stats=True)
        (5): Identity()
        (6): ReLU6(inplace)
        (7): Conv2d(12, 8, kernel_size=(1, 1), stride=(1, 1), bias=False)
        (8): BatchNorm2d(8, eps=1e-05, momentum=0.1, affine=True, track_running_stats=True)
      )
    )
    (2): MobileBottleneck(
      (conv): Sequential(
        (0): Conv2d(8, 20, kernel_size=(1, 1), stride=(1, 1), bias=False)
        (1): BatchNorm2d(20, eps=1e-05, momentum=0.1, affine=True, track_running_stats=True)
        (2): ReLU6(inplace)
        (3): Conv2d(20, 20, kernel_size=(5, 5), stride=(1, 1), padding=(2, 2), groups=20, bias=False)
        (4): BatchNorm2d(20, eps=1e-05, momentum=0.1, affine=True, track_running_stats=True)
        (5): Identity()
        (6): ReLU6(inplace)
        (7): Conv2d(20, 16, kernel_size=(1, 1), stride=(1, 1), bias=False)
        (8): BatchNorm2d(16, eps=1e-05, momentum=0.1, affine=True, track_running_stats=True)
      )
    )
    (3): MobileBottleneck(
      (conv): Sequential(
        (0): Conv2d(16, 36, kernel_size=(1, 1), stride=(1, 1), bias=False)
        (1): BatchNorm2d(36, eps=1e-05, momentum=0.1, affine=True, track_running_stats=True)
        (2): ReLU6(inplace)
        (3): Conv2d(36, 36, kernel_size=(3, 3), stride=(1, 1), padding=(1, 1), groups=36, bias=False)
        (4): BatchNorm2d(36, eps=1e-05, momentum=0.1, affine=True, track_running_stats=True)
        (5): Identity()
        (6): ReLU6(inplace)
        (7): Conv2d(36, 16, kernel_size=(1, 1), stride=(1, 1), bias=False)
        (8): BatchNorm2d(16, eps=1e-05, momentum=0.1, affine=True, track_running_stats=True)
      )
    )
    (4): MobileBottleneck(
      (conv): Sequential(
        (0): Conv2d(16, 32, kernel_size=(1, 1), stride=(1, 1), bias=False)
        (1): BatchNorm2d(32, eps=1e-05, momentum=0.1, affine=True, track_running_stats=True)
        (2): ReLU6(inplace)
        (3): Conv2d(32, 32, kernel_size=(7, 7), stride=(2, 2), padding=(3, 3), groups=32, bias=False)
        (4): BatchNorm2d(32, eps=1e-05, momentum=0.1, affine=True, track_running_stats=True)
        (5): Identity()
        (6): ReLU6(inplace)
        (7): Conv2d(32, 20, kernel_size=(1, 1), stride=(1, 1), bias=False)
        (8): BatchNorm2d(20, eps=1e-05, momentum=0.1, affine=True, track_running_stats=True)
      )
    )
    (5): MobileBottleneck(
      (conv): Sequential(
        (0): Conv2d(20, 40, kernel_size=(1, 1), stride=(1, 1), bias=False)
        (1): BatchNorm2d(40, eps=1e-05, momentum=0.1, affine=True, track_running_stats=True)
        (2): ReLU6(inplace)
        (3): Conv2d(40, 40, kernel_size=(3, 3), stride=(1, 1), padding=(1, 1), groups=40, bias=False)
        (4): BatchNorm2d(40, eps=1e-05, momentum=0.1, affine=True, track_running_stats=True)
        (5): Identity()
        (6): ReLU6(inplace)
        (7): Conv2d(40, 20, kernel_size=(1, 1), stride=(1, 1), bias=False)
        (8): BatchNorm2d(20, eps=1e-05, momentum=0.1, affine=True, track_running_stats=True)
      )
    )
    (6): MobileBottleneck(
      (conv): Sequential(
        (0): Conv2d(20, 40, kernel_size=(1, 1), stride=(1, 1), bias=False)
        (1): BatchNorm2d(40, eps=1e-05, momentum=0.1, affine=True, track_running_stats=True)
        (2): ReLU6(inplace)
        (3): Conv2d(40, 40, kernel_size=(5, 5), stride=(1, 1), padding=(2, 2), groups=40, bias=False)
        (4): BatchNorm2d(40, eps=1e-05, momentum=0.1, affine=True, track_running_stats=True)
        (5): Identity()
        (6): ReLU6(inplace)
        (7): Conv2d(40, 20, kernel_size=(1, 1), stride=(1, 1), bias=False)
        (8): BatchNorm2d(20, eps=1e-05, momentum=0.1, affine=True, track_running_stats=True)
      )
    )
    (7): MobileBottleneck(
      (conv): Sequential(
        (0): Conv2d(20, 40, kernel_size=(1, 1), stride=(1, 1), bias=False)
        (1): BatchNorm2d(40, eps=1e-05, momentum=0.1, affine=True, track_running_stats=True)
        (2): ReLU6(inplace)
        (3): Conv2d(40, 40, kernel_size=(5, 5), stride=(1, 1), padding=(2, 2), groups=40, bias=False)
        (4): BatchNorm2d(40, eps=1e-05, momentum=0.1, affine=True, track_running_stats=True)
        (5): Identity()
        (6): ReLU6(inplace)
        (7): Conv2d(40, 20, kernel_size=(1, 1), stride=(1, 1), bias=False)
        (8): BatchNorm2d(20, eps=1e-05, momentum=0.1, affine=True, track_running_stats=True)
      )
    )
    (8): MobileBottleneck(
      (conv): Sequential(
        (0): Conv2d(20, 80, kernel_size=(1, 1), stride=(1, 1), bias=False)
        (1): BatchNorm2d(80, eps=1e-05, momentum=0.1, affine=True, track_running_stats=True)
        (2): ReLU6(inplace)
        (3): Conv2d(80, 80, kernel_size=(7, 7), stride=(2, 2), padding=(3, 3), groups=80, bias=False)
        (4): BatchNorm2d(80, eps=1e-05, momentum=0.1, affine=True, track_running_stats=True)
        (5): Identity()
        (6): ReLU6(inplace)
        (7): Conv2d(80, 40, kernel_size=(1, 1), stride=(1, 1), bias=False)
        (8): BatchNorm2d(40, eps=1e-05, momentum=0.1, affine=True, track_running_stats=True)
      )
    )
    (9): MobileBottleneck(
      (conv): Sequential(
        (0): Conv2d(40, 80, kernel_size=(1, 1), stride=(1, 1), bias=False)
        (1): BatchNorm2d(80, eps=1e-05, momentum=0.1, affine=True, track_running_stats=True)
        (2): ReLU6(inplace)
        (3): Conv2d(80, 80, kernel_size=(5, 5), stride=(1, 1), padding=(2, 2), groups=80, bias=False)
        (4): BatchNorm2d(80, eps=1e-05, momentum=0.1, affine=True, track_running_stats=True)
        (5): Identity()
        (6): ReLU6(inplace)
        (7): Conv2d(80, 40, kernel_size=(1, 1), stride=(1, 1), bias=False)
        (8): BatchNorm2d(40, eps=1e-05, momentum=0.1, affine=True, track_running_stats=True)
      )
    )
    (10): MobileBottleneck(
      (conv): Sequential(
        (0): Conv2d(40, 80, kernel_size=(1, 1), stride=(1, 1), bias=False)
        (1): BatchNorm2d(80, eps=1e-05, momentum=0.1, affine=True, track_running_stats=True)
        (2): ReLU6(inplace)
        (3): Conv2d(80, 80, kernel_size=(5, 5), stride=(1, 1), padding=(2, 2), groups=80, bias=False)
        (4): BatchNorm2d(80, eps=1e-05, momentum=0.1, affine=True, track_running_stats=True)
        (5): Identity()
        (6): ReLU6(inplace)
        (7): Conv2d(80, 40, kernel_size=(1, 1), stride=(1, 1), bias=False)
        (8): BatchNorm2d(40, eps=1e-05, momentum=0.1, affine=True, track_running_stats=True)
      )
    )
    (11): MobileBottleneck(
      (conv): Sequential(
        (0): Conv2d(40, 80, kernel_size=(1, 1), stride=(1, 1), bias=False)
        (1): BatchNorm2d(80, eps=1e-05, momentum=0.1, affine=True, track_running_stats=True)
        (2): ReLU6(inplace)
        (3): Conv2d(80, 80, kernel_size=(5, 5), stride=(1, 1), padding=(2, 2), groups=80, bias=False)
        (4): BatchNorm2d(80, eps=1e-05, momentum=0.1, affine=True, track_running_stats=True)
        (5): Identity()
        (6): ReLU6(inplace)
        (7): Conv2d(80, 40, kernel_size=(1, 1), stride=(1, 1), bias=False)
        (8): BatchNorm2d(40, eps=1e-05, momentum=0.1, affine=True, track_running_stats=True)
      )
    )
    (12): MobileBottleneck(
      (conv): Sequential(
        (0): Conv2d(40, 160, kernel_size=(1, 1), stride=(1, 1), bias=False)
        (1): BatchNorm2d(160, eps=1e-05, momentum=0.1, affine=True, track_running_stats=True)
        (2): ReLU6(inplace)
        (3): Conv2d(160, 160, kernel_size=(5, 5), stride=(1, 1), padding=(2, 2), groups=160, bias=False)
        (4): BatchNorm2d(160, eps=1e-05, momentum=0.1, affine=True, track_running_stats=True)
        (5): Identity()
        (6): ReLU6(inplace)
        (7): Conv2d(160, 48, kernel_size=(1, 1), stride=(1, 1), bias=False)
        (8): BatchNorm2d(48, eps=1e-05, momentum=0.1, affine=True, track_running_stats=True)
      )
    )
    (13): MobileBottleneck(
      (conv): Sequential(
        (0): Conv2d(48, 96, kernel_size=(1, 1), stride=(1, 1), bias=False)
        (1): BatchNorm2d(96, eps=1e-05, momentum=0.1, affine=True, track_running_stats=True)
        (2): ReLU6(inplace)
        (3): Conv2d(96, 96, kernel_size=(5, 5), stride=(1, 1), padding=(2, 2), groups=96, bias=False)
        (4): BatchNorm2d(96, eps=1e-05, momentum=0.1, affine=True, track_running_stats=True)
        (5): Identity()
        (6): ReLU6(inplace)
        (7): Conv2d(96, 48, kernel_size=(1, 1), stride=(1, 1), bias=False)
        (8): BatchNorm2d(48, eps=1e-05, momentum=0.1, affine=True, track_running_stats=True)
      )
    )
    (14): MobileBottleneck(
      (conv): Sequential(
        (0): Conv2d(48, 96, kernel_size=(1, 1), stride=(1, 1), bias=False)
        (1): BatchNorm2d(96, eps=1e-05, momentum=0.1, affine=True, track_running_stats=True)
        (2): ReLU6(inplace)
        (3): Conv2d(96, 96, kernel_size=(5, 5), stride=(1, 1), padding=(2, 2), groups=96, bias=False)
        (4): BatchNorm2d(96, eps=1e-05, momentum=0.1, affine=True, track_running_stats=True)
        (5): Identity()
        (6): ReLU6(inplace)
        (7): Conv2d(96, 48, kernel_size=(1, 1), stride=(1, 1), bias=False)
        (8): BatchNorm2d(48, eps=1e-05, momentum=0.1, affine=True, track_running_stats=True)
      )
    )
    (15): MobileBottleneck(
      (conv): Sequential(
        (0): Conv2d(48, 100, kernel_size=(1, 1), stride=(1, 1), bias=False)
        (1): BatchNorm2d(100, eps=1e-05, momentum=0.1, affine=True, track_running_stats=True)
        (2): ReLU6(inplace)
        (3): Conv2d(100, 100, kernel_size=(5, 5), stride=(1, 1), padding=(2, 2), groups=100, bias=False)
        (4): BatchNorm2d(100, eps=1e-05, momentum=0.1, affine=True, track_running_stats=True)
        (5): Identity()
        (6): ReLU6(inplace)
        (7): Conv2d(100, 48, kernel_size=(1, 1), stride=(1, 1), bias=False)
        (8): BatchNorm2d(48, eps=1e-05, momentum=0.1, affine=True, track_running_stats=True)
      )
    )
    (16): MobileBottleneck(
      (conv): Sequential(
        (0): Conv2d(48, 200, kernel_size=(1, 1), stride=(1, 1), bias=False)
        (1): BatchNorm2d(200, eps=1e-05, momentum=0.1, affine=True, track_running_stats=True)
        (2): ReLU6(inplace)
        (3): Conv2d(200, 200, kernel_size=(7, 7), stride=(2, 2), padding=(3, 3), groups=200, bias=False)
        (4): BatchNorm2d(200, eps=1e-05, momentum=0.1, affine=True, track_running_stats=True)
        (5): Identity()
        (6): ReLU6(inplace)
        (7): Conv2d(200, 96, kernel_size=(1, 1), stride=(1, 1), bias=False)
        (8): BatchNorm2d(96, eps=1e-05, momentum=0.1, affine=True, track_running_stats=True)
      )
    )
    (17): MobileBottleneck(
      (conv): Sequential(
        (0): Conv2d(96, 152, kernel_size=(1, 1), stride=(1, 1), bias=False)
        (1): BatchNorm2d(152, eps=1e-05, momentum=0.1, affine=True, track_running_stats=True)
        (2): ReLU6(inplace)
        (3): Conv2d(152, 152, kernel_size=(5, 5), stride=(1, 1), padding=(2, 2), groups=152, bias=False)
        (4): BatchNorm2d(152, eps=1e-05, momentum=0.1, affine=True, track_running_stats=True)
        (5): Identity()
        (6): ReLU6(inplace)
        (7): Conv2d(152, 96, kernel_size=(1, 1), stride=(1, 1), bias=False)
        (8): BatchNorm2d(96, eps=1e-05, momentum=0.1, affine=True, track_running_stats=True)
      )
    )
    (18): Conv2d(96, 640, kernel_size=(1, 1), stride=(1, 1))
    (19): AdaptiveAvgPool2d(output_size=1)
  )
  (classifier): Sequential(
    (0): Dropout(p=0.0)
    (1): Linear(in_features=640, out_features=100, bias=True)
  )
)
=> do not use any checkpoint for mobilenetv5 model

==>>[2019-09-24 21:31:23] [Epoch=000/300] [Need: 00:00:00] [learning_rate=0.1000] [Best : Accuracy=0.00, Error=100.00]
  Epoch: [000][000/391]   Time 16.005 (16.005)   Data 0.894 (0.894)   Loss 4.6486 (4.6486)   Prec@1 0.781 (0.781)   Prec@5 4.688 (4.688)   [2019-09-24 21:31:39]
  Epoch: [000][200/391]   Time 0.097 (0.203)   Data 0.000 (0.005)   Loss 4.0799 (4.3287)   Prec@1 3.125 (4.069)   Prec@5 26.562 (16.422)   [2019-09-24 21:32:04]
…
